project4/checkpoint.pt (torch, 752107 bytes, 30 tensors)

conv_layers.0.weight f4 [6, 1, 5, 5]
00000000: c342 17bd c222 21bf 6399 1cbf 92d6 eebe
00000010: 41d2 00bf e41b 9f3e 1d60 9fbe 8182 d3be
00000020: 6a34 dbbe 4fb8 8ebe a311 ca3d 6443 17bd
00000030: 1489 1ebe f483 0cbe 3129 18be 9d0e 1b3e
00000040: d10b eb3e ad5f e33e 8b92 4c3e 4df2 823c
00000050: d26b f23e 88d5 333f a4e5 473f 5259 393f
00000060: fb02 363f bb09 063f b668 5f3e 388f 5ebe
00000070: 8f15 1ebf a072 98be 195d b73e 91e1 613e
00000080: 5fab b1be 7885 4dbf 93b0 8abd 6bd9 963e
00000090: 17a1 77be 58d4 b1bf 9379 bcbe c067 383e
000000a0: 1fb0 6d3c 21f2 0ebf de70 91bf 80fa ff3d
000000b0: 29e1 743e a751 ebbe e838 89bf 3a3e 37be
000000c0: 4140 ec3e 8dc8 9b3e 7ba1 0fbf dc44 f5bd
000000d0: ec4a 393e 755a 1d3d d4c9 1dbd 5f30 acbe
000000e0: e52f dabd c154 a23e f682 a13d fb60 dd3d
000000f0: 8b67 7bbd a41a 583d 89fa a33e 9c16 df3e
00000100: b65c 483e 47af 8bbe 7d90 dd3d 83be a03e
00000110: 2190 e43e b8d6 b9bd b753 553e 56bb 5f3e
00000120: f95d cc3b 852a c13d 60d7 093e a4de e53e
00000130: 25a3 463e 9428 423e 8d46 5d3e c582 853e
00000140: fc29 05be bf1e 883e a37a 133e 438e b13e
00000150: a2de 2e3e 5ba8 dabe 20e7 a2be 9227 bfbe
00000160: d3e1 e6be ecfc 82be 5a3d bfbe bb7d 6dbf
00000170: 5196 d9bf 5069 92bf 4914 3bbf d0e9 413e
00000180: b2e2 983e 1011 da3e 0cb2 923e 0386 0ebe
00000190: 9236 883d 8f38 263e 71e6 3f3e aa88 023f
000001a0: fec7 e33e f721 0b3e 50da b13e dfe7 e33e
000001b0: 9ab5 df3e f5f1 d03e 6c70 483e bf5c ab3e
000001c0: 6ad8 8d3e 4f8c 293e 40ed e23d 1470 3bbe
000001d0: deb9 c0be 22ae 00bf c3b6 36bf 6024 93be
000001e0: 61ed c9be c73e 2abf ebd2 3ebf 465d 50bf
000001f0: 8aee 3cbf 067f 8fbd 9c18 ad3d 4fe5 823e
00000200: 9c8c 553d 62e3 7ebe 758b 243e 1bc4 cf3e
00000210: 5c52 c23e ef0e ac3e 8e52 0c3c 61e5 c53d
00000220: c1d0 973e 0c9e 253e 4197 edbd fa50 93bd
00000230: 9e4e f7bc de7b 2e3e e922 e43d 4424 123b
00000240: dc4c 1a3e 5aa5 b93d d273 06be be95 89be
00000250: 4a45 12be a4f3 373d
-0.036928903 -0.6294366 -0.6117155 -0.4664808 -0.5032082 0.31075966 -0.31128016 -0.41310504
-0.42813426 -0.2787499 0.09866645 -0.036929503 -0.15481979 -0.13722211 -0.14859463 0.15142293
0.45907453 0.44408932 0.19977777 0.015984679 0.47347885 0.702477 0.7808478 0.72401917
0.710983 0.523586 0.21817288 -0.21734321 -0.61751646 -0.29774952 0.35813215 0.22058703
-0.34701058 -0.8028178 -0.0677196 0.29462752 -0.24182545 -1.3892927 -0.36811504 0.18008327
0.014507323 -0.5583821 -1.1362569 0.12498951 0.23914017 -0.45960733 -1.0720491 -0.17894831
0.46142772 0.30426446 -0.56105775 -0.119760245 0.18094987 0.038416345 -0.038522556 -0.33630654
-0.106536664 0.31705287 0.07886307 0.10809513 -0.061378043 0.05275978 0.3202708 0.43571937
0.19566616 -0.27282164 0.108185746 0.3139535 0.44641212 -0.090741575 0.20832716 0.21848807
0.0062367884 0.09431938 0.13461065 0.44896424 0.19398172 0.18960792 0.21608944 0.26076332
-0.13004297 0.26585957 0.14402251 0.3467885 0.17077115 -0.4270657 -0.3181696 -0.37334877
-0.45094165 -0.2558359 -0.37351495 -0.92769974 -1.6998998 -1.1438389 -0.7307783 0.18936849
0.29860455 0.42591143 0.28651464 -0.13918309 0.066510335 0.16232513 0.1874025 0.5098978
0.4448852 0.13587175 0.34736872 0.4451284 0.43693238 0.408096 0.19574136 0.33469197
0.27704173 0.1655743 0.11080408 -0.18304473 -0.37641805 -0.50265706 -0.7137262 -0.2873869
-0.39438918 -0.6650204 -0.74540585 -0.81392324 -0.7380148 -0.0700665 0.084519595 0.25565574
0.05213605 -0.24891427 0.16068824 0.40579304 0.3795346 0.33605143 0.008564604 0.09662891
0.29651454 0.16173571 -0.11601115 -0.071931794 -0.030188855 0.17039439 0.11139471 0.0022299448
0.15068382 0.090647414 -0.1313012 -0.26872057 -0.14284244 0.04491009

conv_layers.0.bias f4 [6]
00000000: 0c62 f0bb b844 f53e 0bad 8b3b 0c06 d13e
00000010: d718 923d 0a55 9abc
-0.007335907 0.4790399 0.0042625717 0.40824926 0.07133644 -0.018839378

conv_layers.3.weight f4 [16, 6, 5, 5]
00000000: b568 d53c 5acb b23d d346 133b 86a3 d53b
00000010: 7d15 2c3c adac 03be 9d95 253e 7198 143c
00000020: 02fc 92bd 9cf7 b13d 3df9 05be 9466 263d
00000030: 63fb adbc 4c0a 16be 01f8 7dbd 2c44 ffbd
00000040: a1d0 b93b e882 953d ba0e f73d 48f7 a23c
00000050: 0b6e 813e 9a61 3e3e fcfb 583e ee6d cc3e
00000060: 02f1 923e b48a 1abe df1f 0bbc d4b8 f43d
00000070: 1eb4 223d 3590 e93d b88d a2bd e4ad d8bd
00000080: 3749 8b3e 5f81 073e 7d10 bd3c a8f7 443d
00000090: 67ca d83d bdb3 a23d 990b cc3c ea80 9dbd
000000a0: 7681 66be dee5 2abe 702a 113c 0aa1 8fbe
000000b0: 5708 28be 4498 e8be a5ea 6ebf 9a15 06bf
000000c0: fd4f 17bf 05f6 d7be 4018 543d b332 923d
000000d0: ca1d 53be 59ba 95bd 78be b43d d4c3 4e3c
000000e0: e1d7 243e b36e febd 5c5b 08be e9d9 263d
000000f0: e5b8 d53d e000 cf3d 1d82 e0bd bf40 7abe
00000100: f228 46bd 6449 abbd 335a 6b3e 04f5 12be
00000110: 2061 90bd 96cf 29bd 49b2 ff3c 32dc 4c3e
00000120: 7708 253e dcff b03c ee70 8b3d cc63 58bd
00000130: 7c0c 89be b5ae ae3e d5f9 e93e 4c2a 683d
00000140: a82e 5cbe 2e1e 02bf 753a 213e abf0 d03e
00000150: 8d58 173e a370 9abd fb39 9dbe 61a5 023d
00000160: 4e58 ae3e 3664 0c3e aeec 043e e400 a8be
00000170: 3dc2 9bbe 4e92 e33d 4c53 123e 1065 143e
00000180: 4734 ab3d 0cf7 b5bd 8e4e 3abe 17b1 603d
00000190: 5493 0b3e d97f 3bbe c306 4f3e 48af 683e
000001a0: b24c 953d d58d d33c fd53 a2be dd18 1abe
000001b0: 7754 463e ab64 d73b 4a09 883c 95c4 bdbe
000001c0: 6e47 233d 835d a43e 3e9f 643e e82c 5a3e
000001d0: 1574 43be 01f5 11bf 211f 23be 7acd a83e
000001e0: 7e9d 053e 1187 bc3e 44d4 79bc 97aa 64bd
000001f0: ca08 083d 088f 7dbd 1ca8 833d 2bed 6f3d
00000200: be0a 13be 56e3 023d e5db abbd 9130 403e
00000210: 72c9 67bc 2a72 78be 2b0e cfbc 2939 19be
00000220: 55fb 5c3e f5d6 6b3d eafb 27be 8d03 1ebc
00000230: d573 a3bd c0e8 3a3e 571d 5dbd 6172 9dbe
00000240: 3c41 f4bd 637d c7bd e12a e83d 7415 103e
00000250: 40bc aabd 7df2 a43c aa4b 393e 00bb 5d3e
00000260: f7d0 783e 4e50 853e 884f 8abe 2dc5 aebd
00000270: db83 0cbd e8dc d5be b306 39bf 76fa 62bf
00000280: c76f d6bd 63f9 a3be 5fc6 35bf 5a63 40bf
00000290: 0e50 41bf d514 283e d2f5 28bd 62f7 b1be
000002a0: 6403 70be a8af 1cbf 861d 393e ad60 96bc
000002b0: b0f3 6fbe ac00 dfbd e790 b8bd c4ae 35be
000002c0: 536f 1d3d 323a de3d fd56 203d 6334 443d
000002d0: 0ca0 4fbe f1d2 583d 2be3 d43d 2336 a63e
000002e0: f293 68bc 0153 67be 45fe d93e 33ec a13e
000002f0: 6ba2 e83d 9520 533d 298d 2cbe 8b30 ce3d
00000300: 717f ec3e f352 0b3d 3bed 66bd 1e01 92bd
00000310: 6f5d 1b3e 2b8c 873e 9ae0 033e 100b da3d
00000320: bbac 273e 9f93 6d3e fa14 893e 2e62 ba3d
00000330: 5ab8 043d b880 3e3e d1db 4e3e 6929 603d
00000340: 069e 6bbe 8c88 d7be 9e41 243e 5eb5 08bd
00000350: 0417 0abf 5c5f 30bf eb3f 4bbf 6fae 023e
00000360: 8363 38be d5dc 4abf b602 1fbf 06c9 24bf
00000370: cf52 5f3c 069b 8bbe 6b98 18bf c727 71be
00000380: 0c96 21bf 618a 6ebc 5b0c 3b3e 7c6a 343e
00000390: 15d4 073e 750f 2fbe fd5b 84bd 7bd5 1a3e
000003a0: 373b de3e b52f 703e bfe8 c63d 234f 65be
000003b0: 4526 49be 3549 973e cdc7 043e b07a 693e
000003c0: 4048 a6be e9ee 9a3d 3b90 1e3e 92af 233e
000003d0: c7a2 5f3e 9628 a73d 8ba8 05bd 3a70 873e
000003e0: 2afc e63d 017c ab3d 996b 05bd 0a46 be3e
000003f0: 199f f73e 44c8 8a3e 75ac 423e 2833 31bd
0.026050905 0.087301925 0.0022472634 0.0065197377 0.01050317 -0.1285884 0.16170354 0.009069548
-0.07176973 0.08689806 -0.13083358 0.04062517 -0.021238035 -0.14652365 -0.062004093 -0.12464175
0.0056706225 0.07300359 0.12063356 0.019893304 0.2527927 0.1859192 0.21189874 0.3992762
0.286995 -0.15091974 -0.008491485 0.11949316 0.039722554 0.114044584 -0.07937187 -0.10580042
0.27204296 0.13232945 0.023079151 0.048087746 0.1058548 0.079444386 0.024907874 -0.07690604
-0.22510323 -0.1668925 0.008860216 -0.2805255 -0.16409431 -0.4542867 -0.9332679 -0.5237671
-0.5910643 -0.42179886 0.05178094 0.07138576 -0.20616832 -0.073109336 0.088253915 0.012619931
0.16097976 -0.12423458 -0.13316101 0.04073516 0.104356565 0.10107589 -0.10962317 -0.24438761
-0.048378892 -0.083636075 0.22983627 -0.14351279 -0.07049775 -0.041457735 0.031212943 0.20005873
0.1611651 0.021606378 0.06808649 -0.05282955 -0.26767337 0.34117666 0.4569842 0.056680962
-0.21502173 -0.508273 0.15744956 0.40808615 0.14779873 -0.07541015 -0.30708298 0.031896
0.34051746 0.13710102 0.12980911 -0.3281318 -0.3042163 0.1111189 0.14289588 0.14491677
0.083595805 -0.08885011 -0.18194029 0.054856386 0.1363042 -0.18310489 0.20217423 0.22723114
0.07290019 0.025824467 -0.31704703 -0.15048547 0.19368158 0.00657328 0.016605992 -0.37064043
0.039863043 0.32102594 0.22326371 0.21306193 -0.1908725 -0.5701447 -0.15929843 0.32969266
0.1304836 0.36821797 -0.015248362 -0.05582675 0.033211507 -0.061903983 0.06428549 0.05857579
-0.14359567 0.031955086 -0.08391551 0.18768527 -0.014147149 -0.242623 -0.02527531 -0.14963211
0.2158025 0.057578046 -0.16404691 -0.009644401 -0.079810776 0.1825285 -0.05398306 -0.30751327
-0.11926505 -0.097407125 0.113363035 0.14070684 -0.08336687 0.020135159 0.1809527 0.21653366
0.24298464 0.2603783 -0.27013803 -0.08533702 -0.034305435 -0.417701 -0.7227585 -0.88663423
-0.104705386 -0.32026204 -0.71005815 -0.751516 -0.7551278 0.16414197 -0.041250058 -0.3475905
-0.23438793 -0.6120553 0.18077669 -0.018356645 -0.23432803 -0.108888 -0.09012013 -0.17742449
0.038436245 0.108509436 0.03914546 0.047901522 -0.20275897 0.052935544 0.10394891 0.32463178
-0.014195429 -0.22590257 0.42576805 0.31625518 0.11359104 0.051544745 -0.16850723 0.100678526
0.4619098 0.034014653 -0.056378584 -0.07129119 0.15172361 0.26474127 0.12878647 0.10646641
0.16374485 0.23200844 0.26773816 0.091007575 0.032402374 0.1860379 0.20201041 0.05472699
-0.230095 -0.42096364 0.16040656 -0.03337609 -0.5394137 -0.68895507 -0.79394406 0.12761854
-0.1800671 -0.7924321 -0.6211351 -0.6436924 0.013630583 -0.2726671 -0.5960757 -0.2355033
-0.6311958 -0.014559359 0.18266432 0.17618746 0.13264497 -0.1709574 -0.06462858 0.15120499
0.43404552 0.23455699 0.097123615 -0.2239347 -0.19643505 0.2954804 0.12966843 0.22800708
-0.32476997 0.075651 0.15484707 0.15984944 0.21839438 0.08162038 -0.03263144 0.2645281
0.11278565 0.08373261 -0.032573316 0.3716281 0.4836357 0.27105916 0.190111 -0.043261677

conv_layers.3.bias f4 [16]
00000000: 690b 913d 74d8 0ebd 4b37 b23c cf79 fb3d
00000010: da8c 91bd cfeb 31be d47a de3e dda2 843c
00000020: aeda 4a3e 676d 523e 3dea e4bd 31c2 9fbb
00000030: d41f 5cbc 7db2 cdbc 4980 253e 7cea c6bd
0.070822544 -0.034874395 0.021754881 0.122790925 -0.071069434 -0.1737511 0.43453085 0.01619094
0.19809982 0.20549546 -0.1117749 -0.0048754443 -0.013435323 -0.025109524 0.16162218 -0.09712693

conv_layers.6.weight f4 [120, 16, 5, 5]
00000000: 1ba9 62be 260f 11bd f4c2 863e 5af7 e2bd
00000010: 4105 db3d cf4d 6cbd 6f86 27be cc54 c93d
00000020: 6715 a73c 532b fc3c ef38 4f3c 7aa7 14bd
00000030: ee11 2f3e eb64 3bbe 41b3 3abd d09c 88be
00000040: cc2f c83d e13f 993e 5ea2 253e ad39 7d3c
00000050: 16a8 50be f5bb 9fbd d1ce 48bd 0c39 50bd
00000060: 5b0e e3be 2b08 3b3e 75de 03be 1196 8cbc
00000070: d344 c63d 110c 613e a811 873e 9ffa 7cbe
00000080: a0a0 e3bd 0e83 aabd bc55 86be 0ff9 503d
00000090: f53c 1dbe 7288 1ebd f876 bf3d 0e71 efbe
000000a0: 5415 b33e 4897 25bd 04b5 de3d a9e9 b33d
000000b0: 6113 9cbe d962 803e 36c8 133e 2f44 80be
000000c0: 7a92 f8bd 7b6a 283e f1ec 56be 60e0 2f3d
000000d0: 52ff 2b3d 6351 703e 310f a7bd 0690 503e
000000e0: e978 a83d 5402 363e 583a 963e e480 eb3d
000000f0: 920e b13e 5b40 493d 11aa 23bd d39f 0f3e
00000100: 7194 16be ea8f 0f3e fbe0 003c 6de3 59bd
00000110: 62b3 2a3e 9a98 7fbe 2700 713e 69eb c7be
00000120: da2d 8fbe bfa5 48be b90c 4a3e cedf cebd
00000130: 2c0f 9fbd 3f4e 5d3d 919b e63d 35c5 2a3d
00000140: 799c 363e cef9 d4b9 8277 d23d d607 b43d
00000150: 570e 5b3d 421e 813e ec98 adbd d92b 1e3e
00000160: ddb5 2f3e adfe aabe 8f7b 873e d20b 573e
00000170: d06a d6bc 11d0 8fbd 8a2c 10be 6853 0abf
00000180: 625c ffbd 2362 073e d9ec bdb9 70fe 9f3d
00000190: 34a9 0b3e 3ab7 65be ea5c 7e3e 7050 af3d
000001a0: 95e7 14be f26e 723e 9959 9abd 84b9 703c
000001b0: 1ba6 abbd 1797 73be 7471 3b3e 0cad 1f3e
000001c0: f785 863d e3df 7abe f909 863d f934 02be
000001d0: 0e69 d2bc 39a5 0abe 90db 82be ef7d 4f3d
000001e0: 9e0c 9fbd 46c3 abbd 6f42 febd d4f8 c6bc
000001f0: db02 7cbc 1a54 a23d b003 2cbb cf1b 0b3e
00000200: 4d01 f13c a0c3 44bd b4c1 91bd d544 b2be
00000210: cdd8 d5be 1155 413b a3c5 06be eac7 0fbe
00000220: 7957 52be d518 2bbe 5e6f 1c3d bd52 50bc
00000230: 1de0 133d 7400 b63d 8850 1e3e 9abe 933d
00000240: 225d 483e 7b22 803d e88f 5c3e 5eb5 8b3e
00000250: 1a36 8cbd 352d 50bd 119d 26bd f9f0 08be
00000260: 63d8 4bbe 0784 533e c7dd 033f 9855 55bd
00000270: 1fc8 2b3e d606 1abe 1227 59bd 9c00 5e3e
00000280: ebdd 193e 3e19 0a3e 287c d5bd eb2e 833d
00000290: 2f03 f9bd 7360 4d3e 0286 973d e6f6 ecbc
000002a0: 4a47 ddbd 90bc bfbd 0715 483c a340 433e
000002b0: a73f cd3a 36c9 c7bd a659 ad3d b3ad 1dbe
000002c0: fc63 d4bc 8641 29be 384b d8bd 7702 b7be
000002d0: bcd4 d1be d78f 82be d82e cf3b d86b 9ebb
000002e0: c5ed 23bc b789 773c 0772 713c eda1 823d
000002f0: f7ed af3d 9afa 4b3d c51e 183e 8bb6 0a3d
00000300: 25fe b63a e0f9 a43c 2f5d e13c bcd9 833d
00000310: 07d3 f43c f945 473e aeb1 3f3e 57ed 183d
00000320: eba1 a0be d7bc 67bc 7fab 9dbe be62 163d
00000330: 6014 bebd 0b0c 5fbe 8f21 193d de07 83bd
00000340: 2998 ad3c cbd6 87bd 2960 653d a880 86bc
00000350: 9779 8b3d 7da7 e8bd 1073 fabd caf3 063c
00000360: 8c5f 543d eaca 5a3d 26be 753c 575e b4ba
00000370: 7f82 19bd c3f0 9b3d 1b2f 513e 2723 b4bc
00000380: 03c7 5dbd 8f78 b3be fb69 1d3e d7a6 13bd
00000390: a890 763d d610 dfbd 9d8f 9dbd 121a a1bd
000003a0: 217c bb3d 09d0 42be da4a 7fbe 4345 d8bd
000003b0: d12f 123e 3072 88bd 520b 82be f904 02bf
000003c0: c22d e6bd 9b6d 4e3e f913 103e 774b 2bbe
000003d0: 6730 b6bd 15ad 37be 6d7f f6bd b652 fd3c
000003e0: 2f59 403d ca5f 4cbe 221f c2be 38a7 ae3d
000003f0: 476b abbd bbae 543e 1f16 853c 83f6 d5bc
-0.22134821 -0.035414837 0.26320612 -0.11082335 0.106943615 -0.05769139 -0.16359876 0.09830627
0.020395948 0.030782377 0.012647851 -0.03629253 0.17096683 -0.18300216 -0.045581106 -0.26682138
0.097747415 0.29931548 0.1617522 0.0154556455 -0.2037662 -0.07799522 -0.04902536 -0.050835654
-0.4434689 0.18264835 -0.1287783 -0.017161401 0.09681096 0.21977259 0.26380658 -0.2470498
-0.11114621 -0.08325778 -0.26237285 0.05101877 -0.15355285 -0.038704343 0.09348863 -0.4676594
0.3497721 -0.040427476 0.1087437 0.087848015 -0.30483535 0.25075415 0.14431843 -0.2505202
-0.12137313 0.16446869 -0.20988823 0.04293859 0.04199154 0.23468547 -0.081571944 0.2036744
0.08226187 0.17774326 0.29341388 0.11499193 0.3458143 0.04913364 -0.03995711 0.14025812
-0.14705063 0.14019743 0.0078661395 -0.053195406 0.16669992 -0.24960557 0.23535214 -0.3904679
-0.2796467 -0.19594477 0.19731416 -0.10101281 -0.07766566 0.0540297 0.11260141 0.041691978
0.17833127 -0.0004062191 0.102767006 0.08790557 0.053480472 0.25218397 -0.08476433 0.15446414
0.17159219 -0.33397427 0.26461455 0.21000603 -0.026173979 -0.070221074 -0.1407949 -0.5403352
-0.124687925 0.1322103 -0.00036225354 0.07812202 0.13638765 -0.22433177 0.24840131 0.08560264
-0.14541467 0.23675135 -0.07536621 0.014692668 -0.083812915 -0.23788105 0.18304998 0.15593356
0.065685205 -0.24499469 0.06544871 -0.1271552 -0.02568486 -0.1353959 -0.25558138 0.05065721
-0.077660784 -0.08386855 -0.12415015 -0.024288572 -0.01538154 0.07926197 -0.0026247315 0.13584827
0.029419566 -0.048038125 -0.07117024 -0.3481814 -0.41766968 0.0029500166 -0.1316133 -0.14041105
-0.2054118 -0.16708691 0.038192146 -0.012715039 0.036102403 0.08886805 0.15460408 0.07214089
0.19566777 0.06256577 0.21539271 0.2728681 -0.068462566 -0.050824363 -0.040677134 -0.13373174
-0.19906764 0.20655833 0.5151028 -0.05208358 0.16775559 -0.1504167 -0.053015776 0.2167992
0.15026061 0.13486192 -0.104240716 0.06405433 -0.1215881 0.20056324 0.07398607 -0.028926324
-0.10804613 -0.09362137 0.012212045 0.19067626 0.0015659229 -0.09755175 0.08464365 -0.15398292
-0.025926583 -0.16528901 -0.10561222 -0.35744068 -0.40982616 -0.25500366 0.006322723 -0.0048346333
-0.010005419 0.015108517 0.014736659 0.06378541 0.0859031 0.04979954 0.14855488 0.033865493
0.0013961239 0.020138681 0.027510254 0.06438014 0.029885782 0.19460286 0.18720123 0.03733572
-0.31373534 -0.014144144 -0.30794904 0.03671526 -0.0928123 -0.21781938 0.03738552 -0.06397985
0.02119072 -0.066327654 0.05599991 -0.01641877 0.06810301 -0.11360071 -0.12228978 0.008236835
0.051848933 0.05341617 0.014998948 -0.0013761026 -0.037477966 0.07614281 0.20428126 -0.021989418
-0.05414487 -0.35052916 0.1537246 -0.036047783 0.06019655 -0.10891883 -0.07693408 -0.07866301
0.09154535 -0.19024672 -0.24930897 -0.105600856 0.14276053 -0.066624045 -0.25399262 -0.5078884
-0.11239196 0.20158999 0.14070119 -0.16728006 -0.08895951 -0.1793712 -0.12036023 0.030923229
0.046960052 -0.19958416 -0.37914377 0.08527988 -0.08370071 0.2076978 0.0162459 -0.026118523

conv_layers.6.bias f4 [120]
00000000: bec4 0e3e 609b 3e3d 89a8 e3bb 59e5 85be
00000010: 69c3 553d 2313 46be 7c22 0f3e 9a00 d03d
00000020: 352f cf3d f879 9ebe 73fd 97bd 945d 50bd
00000030: f093 8ebd a1ca 073e c115 5dbe 6bc3 88be
00000040: 9486 9b3d f3f5 2ebe 781f d33c 9907 a5bc
00000050: fdd8 c73d 15c1 e93d 6b9e 27bd 178e 97bd
00000060: bdda 9b3e 92c4 a039 9ae4 fd3b 53ee 1bbc
00000070: 3f4a 10be 3a8f 5c3d 24ac 293e 8c5b 523c
00000080: ea64 5fbd afd3 6dbc 8eaf 6b3b fae5 21be
00000090: b8f7 883e 3bf5 13be d008 9abe dd1c 4ebe
000000a0: 3320 9cbd 99f8 5cbd e530 4dbd eb27 afbe
000000b0: a716 c8bd 9787 bdbd 0007 84bd e334 cc3d
000000c0: d1c4 453e d67c 113e b578 2dbd 68bf efbc
000000d0: f58d 033e 37d6 e5bd abd3 023e 135e f73d
000000e0: cb86 033e 23f8 aa3d e358 863c 1868 4abd
000000f0: 3a16 c2bd b118 3ebe 7b40 14bd 4b5a 083e
00000100: 34c1 e1bd efab a5bd ab33 35be c5d9 b03c
00000110: 0b13 e5bd 8370 93bc 9180 2dbd cbe8 c5bd
00000120: f872 423b 807b 5fbd d184 a5bc 4f14 db3d
00000130: 397c 13be 902d f4bd bd71 263d ddf6 b0bc
00000140: 07f0 913d c0a4 b6bc 2975 01be 5070 44bd
00000150: 0191 be3d 7f74 343e 8e48 44be 06c3 ecbd
00000160: 6a3d 2c3e b2a1 15be 977d c0bd 1a5b ad3d
00000170: 05b7 c7bd b875 aebd 1467 833c 1fbb e2bd
00000180: bee5 52bd cf8a c73c 2928 233d 37c7 a13d
00000190: ce2d 80bd b8ca 0e3d df2e 0cbe ee98 423e
000001a0: 1dcf c6bc 7e98 303e 9303 0e3e 8d61 d03d
000001b0: 36ba bebd b109 d5bc c396 883d 9416 483c
000001c0: 5477 193e 09b0 20bd b72c a43d b24e 543e
000001d0: 630d 583d 0932 8b3e bf65 02bc 95a0 873b
0.13942239 0.046534896 -0.006947581 -0.2615154 0.05218831 -0.19343238 0.13977998 0.10156365
0.10116426 -0.3095243 -0.074213885 -0.050870493 -0.069618106 0.1326089 -0.2159033 -0.26711592
0.07594028 -0.1708601 0.025771841 -0.020145224 0.09758184 0.114137806 -0.040922564 -0.07400148
0.30440322 0.00030664034 0.0077481987 -0.00951727 -0.14090823 0.05384753 0.16569573 0.012839209
-0.0545396 -0.014515801 0.0035962793 -0.15810385 0.26751494 -0.14449017 -0.30084848 -0.20128198
-0.07623329 -0.05394802 -0.050095458 -0.34210142 -0.097699456 -0.09254377 -0.06446648 0.09971025
0.19313361 0.14207777 -0.042351443 -0.029266074 0.12847121 -0.11222499 0.12776057 0.1207849
0.12844388 0.083481096 0.016399806 -0.049415678 -0.09476896 -0.18564107 -0.036194306 0.13315694
-0.11023179 -0.08089434 -0.17695491 0.021588216 -0.11185273 -0.017997986 -0.04235894 -0.09663542
0.0029670577 -0.05456114 -0.020204933 0.10697233 -0.14402856 -0.11922753 0.040635813 -0.021602089
0.0712586 -0.022295356 -0.1264235 -0.047958672 0.09305001 0.17622565 -0.19168302 -0.11560635
0.16820303 -0.14612463 -0.09398954 0.08464642 -0.09751705 -0.08518547 0.016040362 -0.11070847
-0.05148863 0.024358181 0.03983322 0.07899325 -0.062587366 0.034861296 -0.13689755 0.1900365
-0.024268681 0.17245671 0.13868551 0.10174856 -0.09312861 -0.026005598 0.066693805 0.012212414
0.14986926 -0.03923038 0.08016341 0.20733145 0.05274714 0.2718661 -0.0079588285 0.004139016

fc_layers.0.weight f4 [84, 120]
00000000: 2cc9 6c3e f1b6 70be e450 8dbd 1a31 e7bc
00000010: 66eb 1dbe 4519 363d 289a 15be 3435 143e
00000020: 4ffd 65be 6884 2ebe 3912 40be 0d9c f8b9
00000030: 6162 d8bc 317b 5ebe 47a5 d4bc d32a 8a3d
00000040: 3edf a3bd a20f 643e a993 cbbc b39b 6c3d
00000050: f8ac 4e3e dd9b 2ebe 5090 93bd 14e9 38be
00000060: a25d 59be 5994 f3bc 80f1 a5bd 7056 9b3d
00000070: d9a9 893d b4ea a8be e092 bb3d d93b ac3e
00000080: d705 98bd 01df 813e 2b97 93bd a5ff 7d3d
00000090: def8 463e 2354 95bc c9d6 6dbc 6bdd 523e
000000a0: 9990 dfbe a2ca 9bbc cf9a d8bd b0c2 ecbe
000000b0: 17ff a13d a71a 983d 19c9 ab3b bc22 03be
000000c0: 65dd 273e 470a 1abe 2932 b3be 654d 833e
000000d0: e037 9d3e 9dda 77bd 81ee 3ebe 2569 d3bc
000000e0: 7340 06be 7e42 3bbe 772d a03e 1973 0abd
000000f0: 9e99 0a3e a49c b13d 7701 90bd 13c7 423d
00000100: 95df 6b3d 7470 7f3e 11ba 173e 0a65 81be
00000110: 5b6f d43e 3457 b3bc 1a8e d5bd 72a3 12be
00000120: bee2 91be 04e4 3f3d b78d d23b 8266 5c3e
00000130: a28b 01be d2aa 263d f726 8fbe 1086 b83e
00000140: 32a2 333e 4604 b33c 9663 8abd 31e9 ae3e
00000150: fa3e 673e 4ec8 403d acef c23d f3a9 193c
00000160: f246 543e a5c4 053d 56d5 b03d 7782 d93d
00000170: 12ac 94bd 1a2c 92bd 3066 ac3e 729f 853e
00000180: db68 d53d 7497 f53d 1829 b83a e2d3 bdbc
00000190: 2b66 ee3d 83f3 c1bb d188 6a3e 7680 5dbe
000001a0: 94a9 52be c98b 1abe 178c 93bd 77aa 99bd
000001b0: 1562 853c 9bbc f1bd 953e 3cbe 49cd 56be
000001c0: 075b 92bb 063c 17be cd47 0e3e 1b84 99bd
000001d0: e42a e4bc 0b5e 15be b2af bdbd 67e7 553e
000001e0: 3e2c 22be f083 8abe 82b0 663e 53b6 7dbd
000001f0: 403a 3fbe e38d 85bd c99f 3abd e66f d53d
00000200: 092f d63d f07f d83d e133 023e a6fe 46bd
00000210: cc8d 87be cbe2 043e 193e 993d c450 e13d
00000220: 65da 693e 4c7b 053e 4dd3 423d e621 89bd
00000230: 06f3 423e a536 7e3d e7d4 b0bc 5cd4 dabd
00000240: b07a 6ebd c81d cfbc 1993 acbd ab2a 0d3d
00000250: 5bf6 4d3e 811c 9f3d f149 16be dc88 0b3e
00000260: 9e75 2abe 8233 803e b5fc 503d 01fe ff3d
00000270: 737b 9b3d d096 85be c968 803e 1ee9 af3e
00000280: d1d9 3e3e 0234 083b 2aab dbbd 2777 43be
00000290: 5bad 51be 639a 4b3e d65f a2be 594a fb3d
000002a0: 2ecc 0c3e 729d 063d 5fca 563e e035 733e
000002b0: 2c1b 30be ea10 29be 545e 1ebe bd5f 68bc
000002c0: 004e 37be 5eda 873c 489d 79bd b292 903e
000002d0: 6c50 5fbd 122c 04be a2e9 98bd 6b83 f2bd
000002e0: c237 193c 1f79 313e 030d 9f3d a4bc e9bd
000002f0: 4369 b8bd d72b b3bd a276 d13d a068 133e
00000300: 47c3 373e b011 b53d fdb2 37bd aa80 c7bd
00000310: e800 b5bd 352b eabc b39f 2a3e 32ba 3e3d
00000320: 1ed8 c7be b27d cdbc 4e2b ac3d f880 9bbd
00000330: 933a 823d 80ee 003e cde8 893e 29f1 7c3e
00000340: 2098 f1bd 5fb8 ac3c b032 1d3e 40e4 313e
00000350: a637 7c3e f360 ec3c 01d0 27be 34e6 93be
00000360: 3db5 e23d dbc7 da3d 2dbc bfb9 ba5a 3f3e
00000370: 75fe b4bd 315a 293e af43 a8bd 6ed7 a5be
00000380: 0c2c 90be 6da2 11be cf90 34be e03d a1bd
00000390: 66e7 903e 132c 6dbd f7c9 5d3e fb7f 1bbe
000003a0: 1d38 febd 67b1 283e 4bca 533d c4e5 eebd
000003b0: 1738 a03d 4619 89bd ccb1 ba3d 1827 993d
000003c0: acdd 0fbc e5af b73e 1bfb 96bd 593c 5e3e
000003d0: 583e a83e a678 62be 4ba0 08be 203d 3c3d
000003e0: 1718 553c 2708 dc3e 4a4e 9dbe 3a37 c9bc
000003f0: ef10 513d 74f1 be3d 2fa1 d9bd 1a09 17bc
0.23123616 -0.23507287 -0.06900194 -0.028221656 -0.15421829 0.044457693 -0.14609587 0.1447342
-0.22459911 -0.17042696 -0.18756951 -0.00047418513 -0.026414098 -0.21726681 -0.025957717 0.06746449
-0.080015644 0.22271588 -0.024850683 0.057765674 0.2018317 -0.17051645 -0.0720526 -0.18057662
-0.21227124 -0.029733824 -0.08102703 0.07584846 0.06721849 -0.32991564 0.091588736 0.3363941
-0.07422989 0.2536545 -0.072065674 0.06201138 0.19430873 -0.018228596 -0.014516541 0.20592277
-0.43665007 -0.019017521 -0.105764024 -0.46242285 0.07909983 0.074269585 0.0052424786 -0.12806219
0.16393049 -0.15042983 -0.34999207 0.25644985 0.30706692 -0.06051122 -0.1864567 -0.025806973
-0.13110523 -0.18287084 0.31284687 -0.033801172 0.13535163 0.08672455 -0.070315294 0.047553133
0.05758627 0.24945241 0.14817072 -0.252724 0.41491207 -0.021892168 -0.10427494 -0.14320162
-0.28493303 0.046848312 0.006425585 0.21523479 -0.12650922 0.04069025 -0.27959415 0.36039782
0.17542341 0.021852624 -0.06757276 0.34162286 0.22582617 0.047066025 0.0951837 0.009378898
0.20730188 0.032658238 0.086344406 0.10620587 -0.07259382 -0.07137318 0.33671713 0.2609821
0.1042039 0.11991778 0.0014050333 -0.023172323 0.11640581 -0.0059189214 0.22903754 -0.21631035
-0.20572501 -0.15092386 -0.072044544 -0.07503217 0.01628212 -0.11803552 -0.18383248 -0.20976748
-0.0044664177 -0.14768991 0.13894577 -0.074959 -0.027852483 -0.14586656 -0.09262027 0.20889054
-0.1583719 -0.27053785 0.2252827 -0.061941456 -0.18674564 -0.06521203 -0.04556254 0.104217336
0.1045819 0.10571277 0.12715103 -0.048582695 -0.2647537 0.1297714 0.07482547 0.11001733
0.22837217 0.13035315 0.047564793 -0.06695919 0.19038019 0.06206383 -0.021585895 -0.106850356
-0.058222473 -0.025282755 -0.08426494 0.03446452 0.20113508 0.077691086 -0.14676644 0.13626426
-0.1664643 0.25039297 0.05102225 0.12499619 0.075919054 -0.26091623 0.25079945 0.34357542
0.18637778 0.0020782952 -0.10726006 -0.19088422 -0.20476286 0.19883113 -0.31713742 0.1227004
0.13749763 0.032864995 0.20975636 0.2375102 -0.17197865 -0.16510358 -0.15465671 -0.014182982
-0.17900848 0.016583618 -0.06094101 0.2823692 -0.054520056 -0.12907436 -0.07466437 -0.11841472
0.009351673 0.1733136 0.07766154 -0.114129335 -0.09004452 -0.08748596 0.102277055 0.1439538
0.17945586 0.08841264 -0.04484843 -0.097413376 -0.088380635 -0.028585056 0.16662483 0.04656429
-0.39032072 -0.02508435 0.08406697 -0.07592958 0.063588284 0.1259098 0.26935425 0.2470137
-0.11796594 0.021084009 0.15351367 0.17372227 0.24630603 0.028854823 -0.16387941 -0.2888657
0.11069725 0.10682651 -0.0003657056 0.18686953 -0.08837596 0.16538312 -0.082160346 -0.32390922
-0.28158605 -0.14222117 -0.17633365 -0.0787313 0.28301543 -0.05790336 0.21659075 -0.1518554
-0.124130465 0.16473924 0.051706593 -0.11664918 0.07823198 -0.06694274 0.09115943 0.0747816
-0.008780878 0.35876384 -0.07372113 0.21702708 0.32860065 -0.22116336 -0.13342397 0.04595673
0.013006232 0.4297497 -0.30723792 -0.024562467 0.05104154 0.09323397 -0.106264465 -0.009218479

fc_layers.0.bias f4 [84]
00000000: 9bc4 f23d 0774 d4bd a1a0 283d f796 fcbd
00000010: 7094 033e 5f94 383d 56a4 b13d aa33 403d
00000020: 40bd 263e fb96 063e 6bcf 8f3d 4392 423d
00000030: 9bef d43d ab19 8b3e e7e5 913e adb9 44be
00000040: 81bc 423e bbb8 953d 0256 bdbc fead 33bc
00000050: 8679 983e db9c 93bd fcfb 3dbd 82cc b33e
00000060: 14c3 b3bc d0a0 fd3d 5d96 a13e fe3f 983c
00000070: a54d 603e 3fa6 d73e 62b8 9abc dd8e a5bd
00000080: bc4e 65bd 0815 1d3e 67bb 98bb 44cf 1a3e
00000090: a960 c13d dc71 323d d840 c6bd 4dc3 7a3d
000000a0: 376b 3f3d 2e7d cbba 6ffd 203e 03f7 1f3d
000000b0: abbe e53c 9d8c a73e d805 333e 23b8 dabc
000000c0: 63a5 4cbe 4f0c 9a3e 9e26 49be 903a 163e
000000d0: 7a51 ba3e 6e67 5e3d b139 1fbe ade7 71be
000000e0: 7991 383d 9633 8dbd 9bea 46bd c3ac 2fbe
000000f0: 01f2 5fbe 7397 213e a5ef a4bd 5e7e cf3e
00000100: 3c6e 2f3d f7f3 8dbe 87f3 4dbd fb7c 35be
00000110: 0d5a d7bd 4fb9 b83d f744 513e ad98 d6bd
00000120: 1dc0 3fbe 20f0 82bd c851 e5bd 438a 1abe
00000130: ccaa 8abe 5108 0bbe 570e 2d3e 14ad 333d
00000140: 32d8 6bbc 3850 f539 a524 1e3e 7432 85be
0.11853906 -0.10373693 0.041168813 -0.12333482 0.12849593 0.045063373 0.08673923 0.04692427
0.1628313 0.13143532 0.07021984 0.047502767 0.103972636 0.2716802 0.28495714 -0.19211455
0.19017221 0.07310625 -0.0231123 -0.010966776 0.29780215 -0.07207652 -0.04638289 0.35116965
-0.021943606 0.12384188 0.3156003 0.018585201 0.21904619 0.42119023 -0.018886749 -0.0808389
-0.05598329 0.15340054 -0.004661012 0.15118128 0.094422646 0.043565616 -0.09680337 0.06122141
0.046733107 -0.0015524977 0.15721677 0.039053928 0.02804502 0.32724467 0.17482698 -0.026699131
-0.19984965 0.30087516 -0.19643638 0.14670777 0.36390287 0.054297857 -0.15549351 -0.23623534
0.04506061 -0.06894605 -0.04856358 -0.17155747 -0.21869661 0.1578043 -0.08053521 0.40526098
0.042829737 -0.27725193 -0.050281074 -0.17723458 -0.10515223 0.0901972 0.20436464 -0.10478339
-0.18725629 -0.063934565 -0.11197239 -0.15091805 -0.27083433 -0.13577391 0.16900001 0.043866232
-0.014394807 0.0004678981 0.15443666 -0.26015055

fc_layers.2.weight f4 [10, 84]
00000000: 44c2 063d 1d08 e7be d4c8 a13d 80c8 2cbc
00000010: f955 5fbe 06a8 0f3d fd06 86be 06ea 533e
00000020: 4a85 8b3e c8dd df3d 6b85 c9be 0edf 443e
00000030: 76b2 c4be 4e02 8cbe a4a2 d9bd cb78 8ebe
00000040: 2b90 2c3e c6db 58be 1c9d a8be e6ef 89be
00000050: a819 a6be b378 11be 87b2 493e e0b9 b13d
00000060: b189 85be 31a0 4abe c29a d5bd e7e9 11bc
00000070: 8b91 8d3e ce0b acbe 03d0 9fbe 9967 5abe
00000080: cebf 73bc 87bc e2bd 3506 b7be b41a 01bf
00000090: 21e9 46bd f1b5 703e b509 9b3d c319 8c3e
000000a0: 9c7b aabe 359d 883d 22dc 803e 9c9f 2e3d
000000b0: 125a a4be 1088 84be ff6f 20be 4645 f2bd
000000c0: 1f39 dfbe eec2 2cbe 6b13 19be 0a85 83be
000000d0: cf65 cd3e 37a6 093e eeb6 bb3d dca1 b33d
000000e0: c9ba 8d3b 0c48 5bbd e988 c43c c9ca 86be
000000f0: 1d1f 82bd 23f0 73be 191b 543d 4fcd 863e
00000100: 87df 3c3e 856c ccbd 5758 a7bd 7299 ca3b
00000110: 35da 943d 76ae e9be 193e 19be d444 793d
00000120: 556d 413e e755 9cbd 1b5b 73bc 4021 513e
00000130: 6394 99be 5a56 39be cec6 a4be 19f8 97be
00000140: 10d0 373e ac79 4f3e 3c6b 56be bb0c 443d
00000150: 3d19 b3bc a990 d23d f242 babe 9333 d7bd
00000160: bddf 03bf 54e9 c9be 2a47 613e 9710 053b
00000170: c8ed 973d d1ed 1f3e 799c 273e 2401 91be
00000180: 21f0 4cbd c246 803e 0ab0 ea3d 9636 b9be
00000190: f973 bcbd fb05 d83d 269d 14be 6252 34bc
000001a0: 90f0 5ebe 16d0 953c d889 a63d 367d 84be
000001b0: 0cdb 0abe 25fd 143d 1d27 223c be59 c8be
000001c0: 9391 0abf 5993 1c3e 7187 2c3d 15c0 22be
000001d0: 818b e03d 3cb0 66be cf6b ae3d 5e61 ad3e
000001e0: 1c5b 223e ef45 ac3d 4743 18bc 5e80 0c3d
000001f0: 88fc 313e 8d9f 90bd 575e 6d3e 13a3 77bc
00000200: 3c36 f5bd 8be0 cfbd 41ca 733e 69f3 afbe
00000210: 2a88 6dbe 4214 623e e126 4c3e 8790 6fbe
00000220: b803 92bd 020a 8ebe b711 763e 885c 30be
00000230: 57f2 6cbc be89 9fbe 5d2b 823e 5b75 413e
00000240: 9c93 873c 9530 0d3e 2be0 abbe fdd4 b2bc
00000250: 8741 8c3d f7e4 803e 0069 5ebe ef45 f23e
00000260: cebd 1c3d 6d5d e5bd 626c 37bc 88b2 dcbe
00000270: f470 a9be 6b20 be3d 893d 71bd dcfe 95be
00000280: b33f 423e 9e51 3bbd 9c4e 07be c53d 16be
00000290: 2bc5 e9be 6eb0 1fbc 536e 23bb 6e90 c1bd
000002a0: 3551 393e 8634 613d 4a38 bdbe 6d2f 433e
000002b0: 19c7 35be da0c 8c3e 0d2f 773e 9640 f6bb
000002c0: 0b1c b3be e4e3 c7bd 764d ca3b 1148 bf3d
000002d0: af56 7fbe 6729 9d3d a4e7 f4bd 2b64 483d
000002e0: aa9a 893d 86ab e63b e674 1f3d f18a 8b3e
000002f0: 656b 233e bc7f 74be 6d3c 6bbe d947 e73d
00000300: e45a 08be 8dca 0cbe 3669 1d3e 9c3b dabc
00000310: 9dca 0bbe 364c 653e 4e98 f2bd 72e4 6a3e
00000320: 3a11 7bbe 42dd 723d 146a 1d3e 8302 c6be
00000330: 4b69 d1be 1431 3fbe f67a 45bd eab9 f5bc
00000340: 76d4 6bbe 1bf7 76bd 15f8 71bd ac77 a03d
00000350: 9a0d 59be f787 96bd adad c1bd 30b3 103e
00000360: ff46 653e 36d3 56bc f6ee d73d dc74 853d
00000370: 10d5 dbbe e611 533e 9a9e 36bf 59e3 5c3e
00000380: ffbc a73d 4435 243e 1b29 9dbd ec33 68bd
00000390: 0017 ccbb f60c 6e3e 51af febd 50d0 8bbe
000003a0: 5d3e 493e a6ca a2be 7e05 ebbc fd09 5c3e
000003b0: bfb6 9a3d aa3e e3bd eb5b 78be 8b0f 27bf
000003c0: e2ce f9be 5e40 5cbc 3757 2bbc 43b6 24be
000003d0: e286 3c3e 9636 773e 63b4 c53c 1cb0 573e
000003e0: 2715 203e 19c1 123e ac5a 81bd 8b80 433e
000003f0: 6a6e 84be 0fee ffbd 95b0 283d a7ff 5cbe
0.03290011 -0.45123377 0.07899633 -0.01054585 -0.2181014 0.03507235 -0.26177207 0.20694742
0.2725013 0.10930973 -0.39359602 0.19225714 -0.38417405 -0.27345508 -0.10626724 -0.27826533
0.1685187 -0.21177587 -0.32932365 -0.2694084 -0.3244145 -0.142062 0.19697009 0.08678031
-0.26081613 -0.1978767 -0.10429908 -0.008905864 0.27650103 -0.33602756 -0.31213388 -0.21328582
-0.014877273 -0.11071115 -0.35746923 -0.5043137 -0.048562173 0.23506905 0.07570211 0.27363405
-0.3329743 0.0667061 0.25167948 0.042632684 -0.32099968 -0.25885057 -0.15667723 -0.11829619
-0.43598267 -0.16871235 -0.14948814 -0.25687438 0.40116736 0.13442312 0.091657504 0.087711066
0.004325245 -0.053535506 0.023991065 -0.26326588 -0.06353591 -0.23822074 0.051783655 0.26328513
0.18444644 -0.09981636 -0.08171146 0.006182843 0.07268182 -0.45640916 -0.14965095 0.060856655
0.18889363 -0.07633572 -0.014853264 0.2042284 -0.29996023 -0.18099347 -0.32182926 -0.2968147
0.17950463 0.20261258 -0.20939344 0.047863703 -0.02186262 0.10281498 -0.363792 -0.10507884
-0.5151327 -0.39435828 0.21999803 0.0020304078 0.074184 0.15618064 0.16368283 -0.28321183
-0.050033692 0.25053984 0.11459358 -0.36174458 -0.092018075 0.10548016 -0.14513072 -0.01100597
-0.21771455 0.0182877 0.0813176 -0.25876778 -0.13560122 0.03637423 0.009897021 -0.39130968
-0.5412838 0.15290584 0.042121354 -0.15893586 0.10964108 -0.22528166 0.085166566 0.33863348
0.15855068 0.08411776 -0.009293384 0.034302108 0.1738149 -0.07061682 0.23180519 -0.0151145635
-0.11973235 -0.1015025 0.23807622 -0.34365395 -0.23196474 0.2207804 0.19936706 -0.23394977
-0.071296155 -0.2774201 0.24030195 -0.17222798 -0.014462075 -0.31159776 0.2542371 0.18892424
0.016549878 0.13788064 -0.33569464 -0.021830076 0.06848436 0.25174686 -0.21719742 0.4731898
0.03826695 -0.1119946 -0.011195274 -0.4310496 -0.3309399 0.09283527 -0.058896575 -0.29296005
0.18969612 -0.045732133 -0.13213581 -0.14672 -0.4565824 -0.009746654 -0.0024937585 -0.09451376
0.18097384 0.05498173 -0.36957008 0.1906106 -0.17751731 0.27353555 0.24139042 -0.0075150235
-0.34982333 -0.097602636 0.006173785 0.093399175 -0.24935411 0.076739125 -0.119582444 0.048923653
0.06718953 0.00703949 0.038929842 0.2725444 0.15958937 -0.23876852 -0.2297227 0.11293001
-0.13315922 -0.13749142 0.15372166 -0.026639752 -0.1365151 0.22392353 -0.11845456 0.22938707
-0.2451829 0.05929304 0.15372497 -0.3867379 -0.40900645 -0.18671066 -0.048212968 -0.029995877
-0.23030266 -0.060294252 -0.05907448 0.078353256 -0.21196595 -0.07350152 -0.09456954 0.14130855
0.22390364 -0.01311188 0.10543625 0.0651643 -0.4293599 0.20612296 -0.71335757 0.21571101
0.08190345 0.16035944 -0.07673856 -0.05669014 -0.0062283278 0.23247132 -0.12435783 -0.27307367
0.19652696 -0.31795233 -0.028689142 0.21488185 0.07554387 -0.110959366 -0.24253814 -0.6525809
-0.48790652 -0.013443081 -0.010457805 -0.16085152 0.18410829 0.24141917 0.024133867 0.21063274
0.15633069 0.14331473 -0.063161224 0.19092004 -0.2586549 -0.12496578 0.041184027 -0.21581899

fc_layers.2.bias f4 [10]
00000000: 0175 6f3a a470 87bd d57e 9c3a 0517 653d
00000010: 5874 83bd ddf4 e2be d1a9 3f3e 5b83 fd38
00000020: be05 a63d be44 013e
0.00091345614 -0.06613281 0.0011939654 0.055930156 -0.06418675 -0.4432744 0.18717124 0.00012088447
0.08106564 0.1262388

exp_avg f4 [6, 1, 5, 5]
00000000: c500 5f39 dfb3 f037 b3b7 053a be2f cc39
00000010: e929 1e3a 8348 bf39 fcc6 5739 fe31 133a
00000020: ec48 0d3a 63aa d039 ef7d ee39 0404 9e39
00000030: 2717 313a 589b 283a 6961 013a c350 af39
00000040: 1c6d e939 4879 6d3a 40ea 853a d9b0 493a
00000050: 73e3 de39 ce4d 413a be11 b23a b039 db3a
00000060: 9084 8a3a dfeb b7ba 3b57 78ba 6598 acb9
00000070: 3aa6 4f37 9e8d e4b9 70a0 89ba a22f 0aba
00000080: 2d89 c3b8 502e af38 abf8 3fb7 d7de 18ba
00000090: 5332 66b8 2718 dcb5 ce41 5839 7216 d039
000000a0: 75be 67b9 0722 3db8 43ae 1139 7365 0a3a
000000b0: b4c0 463a ff33 ae38 2197 85b8 30bf 0138
000000c0: 094a 8e39 cdc8 003a 78b6 f939 9ce5 153a
000000d0: 5c92 403a c20b 5f3a 5992 d639 a383 283a
000000e0: 1493 2d3a 7818 403a 8361 603a 4610 8f39
000000f0: 74d9 4b3a cccd 433a 6933 533a fab8 473a
00000100: 93a4 c839 ab0a de39 3cfe 153a 6db7 523a
00000110: daff 613a b51f 2c39 9c33 803a 6bce 813a
00000120: 39ff 723a 86c6 563a dd5d 3db8 72c6 8bba
00000130: d6c2 2cba 737b 06ba ae6e 04ba 3bb4 3fb9
00000140: b643 93b9 75cb efb8 e99a f2b9 7fd2 0bba
00000150: 4505 c7b8 726a d938 f755 85b9 bbb6 b0b9
00000160: 3d55 06ba 6a84 a1b8 63f7 fa38 f9f6 7937
00000170: 1f2e 4eb6 f8dc 25b8 a09d 4339 b75b 09b9
00000180: ad44 9738 439e a639 e4ef f339 3a16 243a
00000190: e128 f7ba e484 09bb 644f 03bb 7b70 ebba
000001a0: 5fc3 0bbb d8f4 ddba 25c1 d7ba f0b6 ebba
000001b0: bb66 d3ba e53a 02bb 31c1 afba e2f2 bdba
000001c0: 839b a0ba 0eb5 a1ba 04e6 91ba 50e4 94ba
000001d0: e418 3aba 9b02 0cba 7b82 d5b9 f436 22ba
000001e0: 51ee 46ba 1184 f2b9 1487 8fb9 e40a b2b9
000001f0: 6a6d 0eba cfe5 823a 807e 623a c2ea e239
00000200: d00f d939 129f 4439 7bf9 1f3a 34f3 0c3a
00000210: 7762 2a39 1ea4 3339 f81c 0eb9 a93e 073a
00000220: 344e fe39 9d0c b138 53a0 2bb9 9508 6fb9
00000230: 4735 3039 8a33 5039 c212 c8b9 2358 1fba
00000240: 2b3d 59ba 1107 b139 dfe7 9e39 554f fcb9
00000250: 6d54 49ba 4cf2 8eba
0.00021267224 2.8693988e-05 0.00051009207 0.00038945483 0.0006033467 0.00036484384 0.00020578125 0.00056150544
0.00053895894 0.000397998 0.00045488725 0.000301391 0.0006755464 0.00064318394 0.0004935475 0.00033438773
0.00044522516 0.0009058905 0.0010216907 0.0007693894 0.00042512603 0.00073739595 0.001358561 0.0016725566
0.0010568071 -0.0014032087 -0.00094734476 -0.0003291994 1.2376864e-05 -0.00043593062 -0.0010500085 -0.000527138
-9.3238756e-05 8.353277e-05 -1.1442385e-05 -0.00058315456 -5.488314e-05 -1.6398307e-06 0.0002062388 0.00039689575
-0.00022100827 -4.5092802e-05 0.00013893195 0.00052793993 0.00075818156 8.3066516e-05 -6.370084e-05 3.0934054e-05
0.0002713951 0.0004912734 0.0004762893 0.00057181134 0.0007346028 0.0008508527 0.00040926298 0.0006428307
0.00066213426 0.0007327865 0.0008559452 0.0002728721 0.00077762385 0.0007469326 0.0008056672 0.0007618811
0.0003826959 0.00042351088 0.0005721783 0.0008038197 0.00086211937 0.0001641501 0.0009781006 0.0009903436
0.00092695985 0.00081930344 -4.514853e-05 -0.0010664 -0.0006590312 -0.00051300897 -0.0005051893 -0.0001828232
-0.00028088473 -0.00011434305 -0.00046273254 -0.00053337956 -9.490041e-05 0.00010367193 -0.00025431786 -0.0003370548
-0.0005124396 -7.701742e-05 0.00011967008 1.4899059e-05 -3.0723238e-06 -3.954486e-05 0.00018655369 -0.00013099505
7.213033e-05 0.00031779901 0.00046527304 0.00062594155 -0.0018856787 -0.002098375 -0.0020036334 -0.0017962599
-0.0021326167 -0.0016933931 -0.001646076 -0.0017983597 -0.0016128639 -0.001987153 -0.0013409016 -0.001449194
-0.0012253377 -0.0012337284 -0.0011131172 -0.0011359546 -0.0007099046 -0.00053409644 -0.0004072374 -0.0006187998
-0.00075886125 -0.00046256234 -0.00027375726 -0.0003395892 -0.0005433174 0.0009986701 0.0008640066 0.00043280987
0.00041401247 0.00018751275 0.0006102544 0.0005376816 0.00016249144 0.00017131909 -0.00013552967 0.00051591784
0.0004850492 8.442367e-05 -0.00016367556 -0.00022796013 0.00016804515 0.00019855626 -0.00038160948 -0.0006078502
-0.0008287008 0.00033765336 0.00030308866 -0.00048124293 -0.0007680122 -0.001090595

exp_avg_sq f4 [6, 1, 5, 5]
00000000: 4a49 a337 68b1 7837 dbec 3a37 f083 1a37
00000010: d8dc 4537 90d8 b137 bc39 8637 7ca8 5337
00000020: 7abe 4737 6455 7637 fa68 b437 cacf 9837
00000030: 3ae4 8337 04ae 8137 37a7 9137 d329 ae37
00000040: 33c4 a337 e57e 9c37 bd4b 9c37 66ed ae37
00000050: e01e 9b37 170b a437 daf2 a337 5114 b437
00000060: a954 cc37 a0f7 b038 1572 4238 bf23 9637
00000070: f492 1937 0310 b737 244d 8338 f21a ca37
00000080: ef1b 7036 21e4 6d36 f889 c537 768b 2938
00000090: f3d9 0737 d5f0 2b35 cc92 cd36 ec1b 1838
000000a0: 1e09 d737 035c 9036 f2d4 d235 e949 9937
000000b0: 93bd 6e38 d872 b037 a7b2 c236 1cec 3d37
000000c0: c6ad 2638 d08e a738 c01f 1e37 89bb 4d37
000000d0: b150 7737 56cf a537 5399 d437 795b 2037
000000e0: 24dc 4637 8790 6737 ad99 9237 e294 d737
000000f0: 5f5c 3037 b14f 5637 b220 5e37 d388 8737
00000100: dfd0 d437 9cda 5d37 ac3f 6337 15bf 6537
00000110: dc4d 9137 2fec d237 21bb 8b37 23c7 8837
00000120: 2b6f 9037 5a0c ae37 8741 ee37 a42d 4738
00000130: 441c 1738 f5d8 f337 677c 0038 2252 2138
00000140: d9a6 1138 6122 b537 7089 8137 549e 8437
00000150: a1af be37 422f a437 0648 df36 6872 3036
00000160: d800 5d36 81ee 3337 ad65 4437 0218 0436
00000170: 8430 9934 ed7a 6a35 93f5 0237 4fc2 8737
00000180: 1a29 ff36 812c b936 e2fc 1137 8d91 a637
00000190: 36cb b738 987d ab38 cac8 9f38 7e02 a038
000001a0: b829 9538 ab4f ae38 25cd a038 ef5e 8e38
000001b0: 9f4f 8438 2256 7f38 ab65 9338 3fb2 6838
000001c0: ea4a 2538 09f5 1538 5851 2538 80ab 4b38
000001d0: 8cb4 f537 2b95 8c37 3475 7d37 28e2 c937
000001e0: efd1 0438 3948 8537 2847 0f37 3595 0537
000001f0: 7c1c 9437 31e2 b737 42e6 a537 c09d 9d37
00000200: c407 9637 f9de 6a37 dc7a aa37 6046 8437
00000210: 59b9 7e37 cfc1 8937 d0a8 6037 21d7 a837
00000220: 368f 8537 dc40 7c37 e1f2 6e37 ba4e 4b37
00000230: 509e b737 0490 9537 19ad 7737 2c13 6837
00000240: b8a9 4e37 7efd c837 d32d 9c37 1ada 6c37
00000250: b730 5537 6cc1 5a37
1.9465242e-05 1.48232575e-05 1.1141611e-05 9.209834e-06 1.1793534e-05 2.1200889e-05 1.600093e-05 1.2615808e-05
1.1905673e-05 1.4682624e-05 2.1506556e-05 1.8216571e-05 1.5722693e-05 1.545903e-05 1.7363212e-05 2.0761892e-05
1.9522477e-05 1.8655739e-05 1.8631918e-05 2.0852964e-05 1.8491817e-05 1.9555488e-05 1.95442e-05 2.1467133e-05
2.4358118e-05 8.438458e-05 4.635945e-05 1.7898039e-05 9.153726e-06 2.1822756e-05 6.260935e-05 2.4092824e-05
3.5779046e-06 3.544854e-06 2.3548477e-05 4.0422623e-05 8.097372e-06 6.405292e-07 6.1265655e-06 3.626563e-05
2.5634243e-05 4.302246e-06 1.5708194e-06 1.8273438e-05 5.6920177e-05 2.1034313e-05 5.8024484e-06 1.1320251e-05
3.9739323e-05 7.9897814e-05 9.424926e-06 1.2262616e-05 1.4741135e-05 1.9766081e-05 2.5343767e-05 9.558041e-06
1.1852975e-05 1.3802323e-05 1.7476117e-05 2.5699326e-05 1.0511924e-05 1.2773949e-05 1.3239844e-05 1.6156968e-05
2.5369633e-05 1.32235255e-05 1.3545079e-05 1.3693953e-05 1.7321603e-05 2.5143932e-05 1.665723e-05 1.6305194e-05
1.7217904e-05 2.0748168e-05 2.8402324e-05 4.7487803e-05 3.602753e-05 2.9068886e-05 3.0633437e-05 3.8461883e-05
3.4726083e-05 2.159289e-05 1.5441998e-05 1.5809353e-05 2.2731549e-05 1.957233e-05 6.6543025e-06 2.6292637e-06
3.2932057e-06 1.0724762e-05 1.1706184e-05 1.9683507e-06 2.853377e-07 8.7350674e-07 7.805781e-06 1.6183736e-05
7.604377e-06 5.5186106e-06 8.701552e-06 1.985652e-05 8.763971e-05 8.177309e-05 7.619111e-05 7.629859e-05
7.1126444e-05 8.311806e-05 7.667606e-05 6.7887704e-05 6.309081e-05 6.0876955e-05 7.028443e-05 5.5479115e-05
3.9408835e-05 3.5752575e-05 3.9414823e-05 4.8558693e-05 2.929035e-05 1.6758762e-05 1.5107264e-05 2.406638e-05
3.166677e-05 1.5888467e-05 8.540032e-06 7.962158e-06 1.7656239e-05 2.1920629e-05 1.9776755e-05 1.8789317e-05
1.788501e-05 1.3999402e-05 2.032279e-05 1.5768397e-05 1.5182734e-05 1.6421922e-05 1.3390745e-05 2.0127338e-05
1.5921523e-05 1.5035472e-05 1.4242455e-05 1.2118073e-05 2.188902e-05 1.7829247e-05 1.476265e-05 1.3832741e-05
1.2318073e-05 2.39599e-05 1.8617988e-05 1.4117477e-05 1.2707132e-05 1.3038847e-05

exp_avg f4 [6]
00000000: bc0f 363b 68f1 ec3a acd7 3239 8b7c 85b9
00000010: 8474 d4bb 5354 18ba
0.0027780375 0.0018077316 0.00017055747 -0.0002546053 -0.0064836163 -0.0005810905

exp_avg_sq f4 [6]
00000000: 0205 4839 096b 8c3a fae6 0f39 af38 713a
00000010: 592e 7d3a 6227 cb38
0.00019075352 0.0010713051 0.00013723588 0.0009201867 0.00096580904 9.68713e-05

exp_avg f4 [16, 6, 5, 5]
00000000: 366b 0e3a 61a1 b439 3778 f338 9b5c 4138
00000010: 1574 6237 ac86 193a eef3 bb39 7417 19b9
00000020: 20cc 32b9 00b7 a8b9 d0a5 d539 c9f9 0f3a
00000030: 0914 2e39 4d28 b7b9 0b73 0cba 681a 033a
00000040: ffb0 083a 97be aa39 a8ea 1639 9bff 1137
00000050: 2d18 4e3a efb8 333a c6fc 243a bd98 de39
00000060: 6ccd c539 f1b6 5539 74be c3b7 0148 ad38
00000070: 6ef4 5d39 5d1d cb38 de3c 96b8 8b52 2439
00000080: cddd 4939 332f 8939 5179 e138 bb3c 7838
00000090: af27 1539 e019 a339 8d56 9639 a190 d439
000000a0: 04f9 0638 07a8 e538 80bb b339 5434 e439
000000b0: 3b58 7d39 bf05 33b8 7d3c aa38 4ace f039
000000c0: ea6f 9b39 a133 8839 730d 183a 2ecb cc39
000000d0: fae9 2239 f069 0039 8b68 9339 3d90 263a
000000e0: 952b 7339 5553 0937 6ca6 bd34 a8f4 4839
000000f0: ceef 363a 0ec9 1139 e01b 87b8 a05b 2fb9
00000100: d936 deb8 aa89 4b3a b3a6 fc38 7cc9 10b9
00000110: 97d1 8cb9 fee4 74b7 19bf 283a 7f77 e638
00000120: cc47 d5b8 67d8 9838 65ab 0339 caba 6e39
00000130: 368d 3b39 0560 9a39 541d 6939 93e0 8739
00000140: c375 9638 8b01 2c39 9a1f 6a39 a47d 7d39
00000150: ae1f 8b39 4838 e338 078c 3f39 04ab 8039
00000160: 8786 e139 c48d bb39 c0f9 9238 6bc8 4239
00000170: dc4c 9739 4740 9739 7616 8239 dd83 0a39
00000180: 9f15 6f39 90b8 0138 a66d ff37 5019 3a39
00000190: 4c47 b538 855e 9239 f972 e639 2fd4 e439
000001a0: 4d6e a339 f4d2 2639 86de 2f39 a440 5239
000001b0: d301 163a 51f1 da39 3b66 bb38 e7c5 7c39
000001c0: d6a9 a939 3050 8639 56ec 0c39 eb45 7939
000001d0: 255e 7f39 ba6f 4638 9ce6 6937 78b0 83b8
000001e0: 2f89 163a 4bab 8d39 7bb0 8038 7b17 00b9
000001f0: 42ce b938 95f9 2f39 5e67 9c39 9bee d939
00000200: ddf4 8a39 a732 a439 9d82 b539 b9d9 c439
00000210: bafb 8039 4d48 f238 0e48 6839 eb06 f839
00000220: 06eb e039 28e6 0c39 9a18 3fb6 c181 9bb8
00000230: 939c fc39 74af 173a 0315 9938 9f00 e7b8
00000240: 2dfa b9b9 eac8 113a 2cec fd39 a368 b838
00000250: 686a 1db9 3b7e 29b9 ea5f 9cb9 12c2 7aba
00000260: 6931 53ba 6305 37ba 6062 01ba 6a24 44ba
00000270: 610a 28ba 3c42 cbb8 4425 ee36 0f47 ae37
00000280: c4a5 1d38 cdea 31b9 85d1 85b8 9a6b 8237
00000290: 4d0c 51b9 3034 2939 7bab 47b9 9fec 7bb8
000002a0: f003 10b8 2233 78b8 e360 13b9 6a31 04ba
000002b0: 85e2 49ba 1919 5eba f5ac 54ba 1b34 e5b9
000002c0: ab9e a4b9 1ac2 feb8 b7f6 a7b8 0969 32b9
000002d0: 8bd0 d2b8 4f7d dab8 7dfd d0b7 263f 83b9
000002e0: 23b5 c6b9 ca1a 03b9 6bef a9b8 6321 acb9
000002f0: 34f9 20ba 6d84 17ba b330 f9b8 2113 b3b9
00000300: a8e1 1fba a598 bcb9 681b 9eb9 9e73 afb9
00000310: 7028 ceb9 3259 ddb9 54ad 75b9 8d5b 16b9
00000320: 6a4e d7b9 7483 0fba 3c53 82ba 84c1 0bba
00000330: bc34 b4b9 acd8 5fba e3bb 6aba e370 0eba
00000340: eab3 dcb8 d45f 5538 8d19 85ba ef00 8eb9
00000350: 2eff 1a36 8b62 4436 8091 b937 7fd4 d1b9
00000360: 54f2 de37 5b32 b4b6 6f03 d536 94ca d8b8
00000370: ee37 99b9 28cf 0ab9 aa12 22b9 7797 51b9
00000380: b92d 68b9 eee5 ecb8 b00a bdb8 8ebd aab9
00000390: 6df1 a5b9 67ce 05ba ef63 44b9 6cc2 fbb8
000003a0: 60d6 eeb8 1532 9db9 aebe f0b9 a827 21b9
000003b0: 0c4d 0ab9 22a6 15ba 8496 21ba 4a24 f6b9
000003c0: d900 02ba d1ba 0cba aecc f2b9 5230 c3b9
000003d0: 89ea 64b9 39bf d8b9 3b00 acb9 f09f 2bb9
000003e0: c059 5bb9 3f51 98b9 ad12 f4b8 55df 89b9
000003f0: 4bf8 b6b9 f48d 41ba 20e3 89ba 581c 8538
0.0005432846 0.00034452512 0.00011609535 4.610103e-05 1.3497677e-05 0.00058565545 0.0003584916 -0.00014599954
-0.00017051445 -0.00032179803 0.00040750066 0.0005492238 0.00016601397 -0.00034934506 -0.0005357719 0.0005001188
0.0005214363 0.00032566927 0.00014392531 8.702186e-06 0.0007861879 0.00068558654 0.00062937697 0.00042456939
0.0003772782 0.00020381414 -2.3334498e-05 8.2626946e-05 0.0002116726 9.685264e-05 -7.163895e-05 0.00015671008
0.00019251481 0.00026165842 0.00010751433 5.9184367e-05 0.0001422453 0.0003110906 0.00028674715 0.00040543548
3.2180003e-05 0.000109508685 0.0003428124 0.00043526536 0.00024160829 -4.2682277e-05 8.1174985e-05 0.00045930065
0.00029647286 0.00025978408 0.0005800344 0.00039061293 0.00015536687 0.00012246496 0.00028115915 0.00063538906
0.00023190521 8.185239e-06 3.532508e-07 0.00019164628 0.00069784827 0.00013903176 -6.442494e-05 -0.00016723434
-0.00010596001 0.0007764349 0.000120473465 -0.00013807969 -0.00026859037 -1.459685e-05 0.0006437167 0.000109895125
-0.00010170005 7.288233e-05 0.00012556983 0.00022767033 0.00017886315 0.0002944471 0.00022231537 0.00025916527
7.174492e-05 0.00016403773 0.00022327752 0.00024174765 0.0002653575 0.00010834687 0.00018267344 0.0002454148
0.00043015575 0.00035773043 7.008342e-05 0.00018575943 0.0002885823 0.00028848855 0.00024812267 0.00013209828
0.0002280087 3.0927884e-05 3.0449428e-05 0.00017747772 8.644033e-05 0.00027917713 0.0004395468 0.00043645638
0.00031171963 0.0001590958 0.00016772197 0.00020051241 0.0005722318 0.00041759995 8.935897e-05 0.00024106317
0.0003236073 0.00025618216 0.00013439482 0.00023772537 0.00024353767 4.7310932e-05 1.3941575e-05 -6.279437e-05
0.0005742488 0.0002702124 6.136388e-05 -0.00012215778 8.859906e-05 0.00016782277 0.00029831653 0.0004156724
0.00026503848 0.00031318257 0.00034620325 0.0003754625 0.00024601613 0.00011552926 0.00022152087 0.000473074
0.00042899715 0.0001343718 -2.8475538e-06 -7.4151445e-05 0.00048181842 0.00057863374 7.299522e-05 -0.00011015054
-0.00035472345 0.00055612496 0.00048431882 8.793294e-05 -0.00015012326 -0.0001616412 -0.000298261 -0.0009565662
-0.0008056374 -0.00069816987 -0.00049356185 -0.0007482233 -0.0006410238 -9.6921314e-05 7.097291e-06 2.0775506e-05
3.75861e-05 -0.00016967506 -6.38096e-05 1.5547314e-05 -0.00019936376 0.00016136537 -0.00019042 -6.0063434e-05
-3.4335942e-05 -5.917543e-05 -0.00014055106 -0.00050427637 -0.00077012955 -0.0008472368 -0.0008112931 -0.00043717105
-0.00031398734 -0.00012147818 -8.009135e-05 -0.00017014531 -0.000100524245 -0.000104183906 -2.4913572e-05 -0.00025033316
-0.0003790046 -0.00012503113 -8.103143e-05 -0.00032831272 -0.000614065 -0.0005779926 -0.00011882316 -0.00034155793
-0.0006098994 -0.00035971883 -0.00030156528 -0.00033464743 -0.0003932151 -0.0004221886 -0.0002342959 -0.0001433922
-0.0004106642 -0.0005474605 -0.0009943019 -0.0005331265 -0.00034371566 -0.00085390615 -0.0008954389 -0.00054336915
-0.00010523929 5.0872404e-05 -0.001015471 -0.00027085046 2.3096322e-06 2.9263635e-06 2.2121472e-05 -0.00040021908
2.6577305e-05 -5.37028e-06 6.3482944e-06 -0.00010337416 -0.00029224105 -0.00013237877 -0.00015456477 -0.00019988218
-0.00022142277 -0.00011296185 -9.014213e-05 -0.00032566156 -0.0003165113 -0.0005104304 -0.00018729245 -0.000120048266
-0.00011388655 -0.00029982688 -0.00045918435 -0.0001536893 -0.00013189408 -0.00057086546 -0.0006164091 -0.00046947814
-0.0004959233 -0.0005368414 -0.00046310335 -0.000372293 -0.00021831146 -0.00041341202 -0.00032806568 -0.00016367412
-0.00020918902 -0.00029052232 -0.00011638305 -0.00026297072 -0.00034898738 -0.00073835184 -0.0010519959 6.347214e-05
